trained_net.pth (torch, 368183 bytes, 10 tensors)

conv1.weight f4 [12, 3, 5, 5]
0.112444684 0.25487173 0.25391743 0.30645728 0.24397604 0.14874238 0.052767463 0.21555668
0.2289605 0.31378803 -0.056896843 -0.32066134 -0.43658155 -0.12511635 0.017559692 -0.08096108
-0.28314 -0.4805339 -0.416608 -0.19938049 -0.06908801 -0.09850489 0.039567288 0.024329202
0.012568485 -0.22012085 -0.21417962 -0.107127324 0.16015236 0.17942524 -0.13835162 -0.08408153
0.05744808 0.13850525 0.23025651 0.08382168 -0.21472593 -0.40027037 -0.29901358 -0.059186395
-0.012659006 -0.11387616 -0.25858852 -0.37912202 -0.08764924 0.23346695 0.15110165 0.11643845
-0.044583447 -0.08581725 -0.2187906 -0.17755276 0.039511915 -0.06026784 0.10985503 0.1527464
-0.048274264 0.03411272 0.3448566 0.24723987 0.11561659 -0.1665881 -0.08997822 -0.11246799
0.1923936 0.2215059 0.09133359 -0.10416266 -0.22171395 -0.13863893 0.35589996 0.36375818
0.2894112 0.1656712 0.10138803 0.22079653 -0.031754132 -0.32614294 0.030488528 0.21181634
-0.31267178 -0.4638429 0.17825148 0.35414204 0.11733133 -0.16702577 0.33996785 0.5862935
0.076206096 -0.36015686 0.15663403 0.28460425 0.007975754 -0.59273106 -0.24132374 0.13107586
-0.026247174 -0.20449415 -0.061325345 0.13478811 0.25673822 0.07333799 -0.16119193 0.23314767
0.06042591 -0.24267896 -0.31522593 0.25908712 0.41337362 0.09394836 -0.14153014 0.28960568
0.5132475 -0.022199707 -0.47273174 0.26881808 0.46337107 -0.106026016 -0.5960878 -0.31764045
0.19912758 -0.19402936 -0.47692996 -0.20889775 0.055107333 -0.18528049 -0.3151176 -0.33792886
0.063130505 0.26283437 -0.3131334 -0.44343963 0.13505784 0.31696954 0.062907875 -0.24310423
0.24973044 0.47503877 0.009373192 -0.2898837 0.30631134 0.42882845 0.12854117 -0.35590953
0.011480124 0.07252052 -0.15834042 -0.35487106 0.049744584 0.44570068 0.023012081 -0.08933558
0.11250037 -0.08416725 0.2173725 -0.19024196 0.08201808 0.46855015 -0.25590542 -0.13020593
-0.27046388 0.23199175 0.517895 -0.12920313 -0.43359807 -0.20411223 0.04419104 0.31301227
0.30593482 -0.36012056 0.06766312 -0.20815001 -0.061230153 0.4226511 -0.09414628 0.026800001
0.075256765 0.14366545 -0.034404837 -0.022359662 -0.12413959 0.11579665 0.56660986 -0.38650027
-0.36422604 -0.21971418 0.31127128 0.7078099 -0.12872578 -0.43691912 -0.024020823 0.062427517
0.2920926 0.091493115 -0.41863602 0.16318248 -0.09147569 0.01956919 0.35770264 -0.13588777
-0.07331581 -0.021381866 0.0018746122 -0.3435554 -0.12734504 -0.11166999 0.153687 0.30329832
-0.36254397 -0.39489213 -0.2754008 0.10142679 0.61600345 -0.21813908 -0.38870516 -0.18475644
0.041842103 0.4180494 0.17916963 -0.37651744 0.11100592 -0.11981026 -0.064779826 0.42001593
-0.27440816 0.031052304 -0.2794504 -0.2894567 0.1272089 0.22006254 0.29464307 -0.048370138
-0.42421007 -0.3757693 0.18913709 0.20912604 0.36776322 0.15548779 -0.40659118 -0.27014515
-0.08941869 0.27606422 0.41894636 0.23039746 -0.21369903 -0.24939206 -0.13589264 0.19936016
0.23677248 0.1727001 0.018968422 -0.37751633 -0.20018652 0.16254582 0.28160292 0.30361146
00000000: 6649 e63d 8c7e 823e 7701 823e f8e7 9c3e
00000010: dbd4 793e ec4f 183e b222 583d e4ba 5c3e
00000020: 9f74 6a3e d3a8 a03e aa0c 69bd b92d a4be
00000030: 9e87 dfbe 801e 00be 58d9 8f3c ecce a5bd
00000040: baf7 90be 8a08 f6be a54d d5be 662a 4cbe
00000050: 047e 8dbd efbc c9bd 4f11 223d 094e c73c
00000060: 0cec 4d3c 5c67 61be e751 5bbe 9265 dbbd
00000070: fbfe 233e 40bb 373e 0cac 0dbe f032 acbd
00000080: ae4e 6b3d 52d4 0d3e 5dc8 6b3e b3aa ab3d
00000090: 1de1 5bbe 3df0 ccbe 4f18 99be 6f6d 72bd
000000a0: b867 4fbc e737 e9bd b765 84be 481c c2be
000000b0: 7281 b3bd f611 6f3e 64ba 1a3e 4877 ee3d
000000c0: 229d 36bd f4c0 afbd a50a 60be 64d0 35be
000000d0: 3fd7 213d 69db 76bd adfb e03d 8d69 1c3e
000000e0: 3cbb 45bd c8b9 0b3d 0b91 b03e 732c 7d3e
000000f0: 64c8 ec3d 1296 2abe 8046 b8bd 9e55 e6bd
00000100: d402 453e 71d2 623e 1b0d bb3d 3c53 d5bd
00000110: fb08 63be 5df7 0dbe 8538 b63e 833e ba3e
00000120: b42d 943e b6a5 293e 87a4 cf3d 7c18 623e
00000130: 9f10 02bd 35fc a6be 14c3 f93c 62e6 583e
00000140: 8416 a0be d17c edbe 8e87 363e 1b52 b53e
00000150: 694b f03d ce08 2bbe 4410 ae3e 5517 163f
00000160: f111 9c3d 7b66 b8be ac64 203e a6b7 913e
00000170: bdac 023c 39bd 17bf 921d 77be c038 063e
00000180: 5004 d7bc ea66 51be 4930 7bbd e505 0a3e
00000190: 3173 833e 3a32 963d 7f0f 25be 43be 6e3e
000001a0: 2981 773d d580 78be 4b65 a1be 11a7 843e
000001b0: b5a5 d33e ff67 c03d 47ed 10be 3247 943e
000001c0: 3064 033f 29dc b5bc e509 f2be 86a2 893e
000001d0: f93e ed3e 2b24 d9bd 3699 18bf c5a1 a2be
000001e0: 1ae8 4b3e a2af 46be 2a30 f4be 4be9 55be
000001f0: 3ab8 613d 2bba 3dbe 1857 a1be 0305 adbe
00000200: 914a 813d 3a92 863e 0553 a0be 850a e3be
00000210: 9a4c 0a3e d549 a23e d8d5 803d 51f0 78be
00000220: 56b9 7f3e 4838 f33e 0492 193c a36b 94be
00000230: d7d4 9c3e 678f db3e 4ca0 033e c639 b6be
00000240: 2117 3c3c a385 943d fe23 22be a9b1 b5be
00000250: fac0 4b3d e132 e43e d583 bc3c 93f5 b6bd
00000260: 9866 e63d e15f acbd e696 5e3e cace 42be
00000270: 18f9 a73d cee5 ef3e 0906 83be b454 05be
00000280: 3e7a 8abe 3f8f 6d3e c494 043f d34d 04be
00000290: 9100 debe cc02 51be aa01 353d 2543 a03e
000002a0: 7da3 9c3e b961 b8be f692 8a3d 4725 55be
000002b0: 78cc 7abd ba65 d83e c4cf c0bd ad8b db3c
000002c0: 3820 9a3d 091d 133e 16ec 0cbd 9c2b b7bc
000002d0: e63c febd cb26 ed3d 580d 113f 5de3 c5be
000002e0: d67b babe c1fc 60be f35e 9f3e 0833 353f
000002f0: b1d0 03be ddb3 dfbe 51c7 c4bc ffb3 7f3d
00000300: 298d 953e be60 bb3d 7657 d6be 4f19 273e
00000310: 9b57 bbbd 914f a03c cd24 b73e 2a26 0bbe
00000320: 9926 96bd 0629 afbc 8cb5 f53a 7ee6 afbe
00000330: bd66 02be 3cb3 e4bd 2060 1d3e eb49 9b3e
00000340: 5d9f b9be 4d2f cabe 5501 8dbe d9b8 cf3d
00000350: 67b2 1d3f da5f 5fbe 5d04 c7be cb30 3dbe
00000360: a062 2b3d 920a d63e 3e78 373e e5c6 c0be
00000370: 1257 e33d 155f f5bd 49ab 84bd 540c d73e
00000380: 3a7f 8cbe 6761 fe3c 1f14 8fbe ab33 94be
00000390: 0d43 023e 1358 613e 75db 963e c41f 46bd
000003a0: 1032 d9be d564 c0be 27ad 413e 2325 563e
000003b0: 764b bc3e 3138 1f3e b82c d0be 7750 8abe
000003c0: 2521 b7bd 4a58 8d3e 2380 d63e 50ed 6b3e
000003d0: ebd3 5abe a260 7fbe 7127 0bbe 1225 4c3e
000003e0: 7c74 723e 4cd8 303e aa63 9b3c d249 c1be
000003f0: b2fd 4cbe 6972 263e 422e 903e f672 9b3e

conv1.bias f4 [12]
-0.3122651 -0.09911976 0.007498244 -0.052858096 0.09619747 -0.015724875 -0.46826684 -0.16206673
-0.08866154 -0.07091712 -0.2569351 0.5642817
00000000: 36e1 9fbe 4dff cabd d4b3 f53b bb81 58bd
00000010: 2e03 c53d 74d1 80bc acc0 efbe d2f4 25be
00000020: 2e94 b5bd ff3c 91bd ff8c 83be c474 103f

conv2.weight f4 [24, 12, 5, 5]
0.12675491 0.03679755 0.031744037 0.075112276 0.032511313 0.10737592 0.069304824 0.015237943
0.033081762 0.1253476 0.13291095 0.028770879 -0.04975918 0.03323698 0.017523384 0.05549881
0.060070053 -0.03227499 0.06235474 0.01627756 0.19076027 0.15023133 0.06410721 0.028976748
-0.016027408 0.049309373 -0.06608939 0.00168361 -0.06404389 -0.05707335 0.04263117 -0.05438365
-0.083383456 -0.002696816 -0.08389383 0.1044337 0.068430856 -0.11506712 -0.12682569 -0.09835025
0.09378214 -0.013416136 -0.035634436 -0.16583346 -0.14670537 0.19618767 0.11714508 0.040303633
-0.01968106 -0.040321883 0.018126119 -0.013489057 -0.01581212 0.050400797 0.042026304 -0.10027298
-0.035153434 0.09846103 -0.043053564 -0.1487981 -0.056396894 -0.02909928 -0.09400825 -0.029255927
-0.04906791 0.016396182 0.008622686 -0.021365548 -0.06005009 -0.0492762 -0.059045568 0.045753177
0.0041562086 -0.01415342 -0.082181066 0.23861763 0.23182683 0.13999793 0.03339508 0.048272226
-0.049958903 0.15930359 0.17341565 0.14494905 0.046591498 -0.020357812 -0.018318333 0.018521769
0.12006218 0.19022217 -0.044450883 0.020838322 -0.09256996 -0.08175356 -0.032916013 0.0885725
0.109374106 0.06065467 0.014604473 -0.05591055 -0.088755205 -0.14983706 -0.01715476 -0.030787705
-0.033390064 0.060182717 0.078616835 0.0013149411 -0.0792586 -0.08878642 0.14103808 0.059984345
-0.0016559241 -0.021309339 -0.033910982 0.102526076 0.074347906 0.060568765 0.093264 -0.020985331
0.09359355 0.07256482 0.03973731 0.1111079 0.042782687 0.047564335 0.08962285 0.0038806254
-0.19934557 -0.18303937 -0.005782271 0.12536839 0.04746679 -0.041943718 -0.13030398 -0.08194854
-0.05679135 -0.14683285 -0.1383981 -0.048651952 -0.23187158 -0.074598774 -0.13781798 -0.05013267
0.008678702 0.08262799 0.08913824 -0.03503036 -0.034793366 -0.08782844 0.0045886086 0.089725904
0.052420676 0.059579823 -0.04856034 0.058963355 0.15496784 0.08474315 0.10186285 0.062875606
0.043647833 0.21954677 0.2238668 0.17492631 0.05524114 0.021060444 0.14176565 0.18762012
0.14695314 -0.015177648 -0.06367843 0.07462284 0.116257764 0.074934505 -0.028690578 -0.01345731
-0.049778048 -0.0070494036 -0.007932992 -0.008224483 -0.056070544 0.026250524 -0.04833033 -0.041174725
-0.1328661 -0.011954516 -0.044970937 -0.021399897 0.020436155 -0.07396035 0.075550996 0.02885921
0.07430046 0.09578495 -0.015924638 -0.002579332 0.03659609 0.068086654 0.038422532 0.064704485
-0.020301143 0.06257512 -0.038021334 0.03519286 0.09716938 -0.08080224 -0.060107097 0.03981325
-0.013981548 0.054557964 -0.24407524 -0.20247397 -0.13081406 -0.13143234 0.010591514 -0.1475118
-0.1780574 -0.107556425 -0.13859482 -0.12125286 -0.16064681 -0.045948613 -0.06860292 -0.035936445
-0.09174458 0.16063504 0.23954849 0.10787073 0.07433082 0.1411678 -0.010003326 0.21941848
0.27169573 0.09436917 0.06819364 -0.0557983 0.002727192 -0.10542178 0.06933278 0.107420966
-0.18860775 -0.17217763 -0.20586671 -0.107999206 0.008782243 0.026006587 0.070402935 0.023993045
-0.09695081 -0.0027820864 0.11111614 0.017965427 -0.03825464 -0.08506721 -0.060369596 0.12373108
00000000: 0acc 013e 07b9 163d 0906 023d 77d4 993d
00000010: 952a 053d e8e7 db3d b0ef 8d3d 91a8 793c
00000020: be80 073d 1f5b 003e cf19 083e e8b0 eb3c
00000030: 48d0 4bbd 8023 083d 338d 8f3c b852 633d
00000040: 040c 763d c832 04bd af67 7f3d 8458 853c
00000050: a956 433e 3ed6 193e a44a 833d a560 ed3c
00000060: e94b 83bc a0f8 493d e059 87bd 94ac dc3a
00000070: 7129 83bd bfc5 69bd 069e 2e3d 64c1 5ebd
00000080: f2c4 aabd 11bd 30bb 87d0 abbd 56e1 d53d
00000090: 7a25 8c3d 4fa8 ebbd 98de 01be db6b c9bd
000000a0: da10 c03d 5acf 5bbc 6af5 11bd 3fd0 29be
000000b0: ef39 16be 6ce5 483e c2e9 ef3d 6c15 253d
000000c0: 2d3a a1bc 8f28 25bd 3a7d 943c 3501 5dbc
000000d0: 6b88 81bc 1171 4e3d c623 2c3d ec5b cdbd
000000e0: 0cfd 0fbd f0a5 c93d ef58 30bd 875e 18be
000000f0: 6e00 67bd 9d61 eebc 6687 c0bd 20aa efbc
00000100: 6ffb 48bd 4951 863c 2b46 0d3c cd06 afbc
00000110: 15f7 75bd d7d5 49bd c4d9 71bd af67 3b3d
00000120: ce30 883b bfe3 67bc 8c4e a8bd 2e58 743e
00000130: 0364 6d3e 9e5b 0f3e 48c9 083d 19b9 453d
00000140: b5a1 4cbd 7b20 233e df93 313e 866d 143e
00000150: bad6 3e3d 6dc5 a6bc 5410 96bc f7ba 973c
00000160: 29e3 f53d 9ac9 423e 2112 36bd 21b5 aa3c
00000170: 5295 bdbd 696e a7bd f1d2 06bd 8065 b53d
00000180: 88ff df3d 0871 783d 9947 6f3c 7602 65bd
00000190: 4ac5 b5bd e36e 19be 2488 8cbc 7f36 fcbc
000001a0: 05c4 08bd 2782 763d dd01 a13d 1a5a ac3a
000001b0: 5552 a2bd a8d5 b5bd 496c 103e 25b2 753d
000001c0: 980b d9ba ec90 aebc 3ee6 0abd 31f9 d13d
000001d0: b743 983d f416 783d 3201 bf3d 6ee9 abbc
000001e0: faad bf3d dd9c 943d 97c3 223d 8a8c e33d
000001f0: e63c 2f3d d2d2 423d 2f8c b73d 1752 7e3b
00000200: 3f21 4cbe ac6e 3bbe 3479 bdbb 9260 003e
00000210: 896c 423d 2dcd 2bbd 686e 05be a3d4 a7bd
00000220: 0c9e 68bd 5a5b 16be 3bb8 0dbe 4547 47bd
00000230: be6f 6dbe 3ec7 98bd 2820 0dbe ea57 4dbd
00000240: 1d31 0e3c dd38 a93d 1c8e b63d ff7b 0fbd
00000250: 7d83 0ebd 66df b3bd 0a5c 963b 37c2 b73d
00000260: 10b7 563d f909 743d 35e7 46bd 8f83 713d
00000270: e4af 1e3e d18d ad3d 789d d03d edc4 803d
00000280: 12c8 323d ded0 603e 573d 653e e21f 333e
00000290: 8944 623d f486 ac3c 042b 113e 7d1f 403e
000002a0: e27a 163e abab 78bc d669 82bd dcd3 983d
000002b0: 8d18 ee3d 4377 993d 8108 ebbc 0d7c 5cbc
000002c0: 11e4 4bbd affe e6bb 61f9 01bc fbbf 06bc
000002d0: 3aaa 65bd 570b d73c 06f6 45bd d4a6 28bd
000002e0: 0d0e 08be e0dc 43bc 7233 38bd d64e afbc
000002f0: b969 a73c 8678 97bd 7bba 9a3d 266a ec3c
00000300: d72a 983d e62a c43d 6374 82bc 030a 29bb
00000310: c8e5 153d 0471 8b3d f260 1d3d c983 843d
00000320: 954e a6bc 6227 803d 42bc 1bbd 6326 103d
00000330: bd00 c73d a57b a5bd dc32 76bd 3813 233d
00000340: dd12 65bc 2c78 5f3d dcee 79be 5655 4fbe
00000350: 1ff4 05be 3396 06be 0888 2d3c 550d 17be
00000360: ae54 36be 8b46 dcbd cdeb 0dbe 6b53 f8bd
00000370: 9980 24be 9d34 3cbd b07f 8cbd 1832 13bd
00000380: 95e4 bbbd 837d 243e 334c 753e 54eb dc3d
00000390: c23a 983d 4b8e 103e fee4 23bc 3daf 603e
000003a0: b41b 8b3e a044 c13d 1ba9 8b3d c28c 64bd
000003b0: b0ba 323b 60e7 d7bd 58fe 8d3d 86ff db3d
000003c0: 6422 41be 554f 30be b9ce 52be b02e ddbd
000003d0: 66e3 0f3c c40b d53c 6a2f 903d 108d c43c
000003e0: 258e c6bd aa53 36bb dc90 e33d 3b2c 933c
000003f0: e6b0 1cbd b837 aebd 1c46 77bd b866 fd3d

conv2.bias f4 [24]
-0.43525282 -0.049231417 0.14250624 -0.26323438 0.19364485 -0.005564245 0.035411093 -0.30761045
-0.41980308 -0.05500721 -0.16528474 0.38419613 0.2945237 0.24461919 -0.27801502 0.4622082
0.116582684 -0.5501958 0.4242957 0.2930566 -0.2789843 0.07268591 -0.10812306 0.14449263
00000000: 75d9 debe e2a6 49bd 28ed 113e a8c6 86be
00000010: d64a 463e 4554 b6bb 390b 113d 1e7f 9dbe
00000020: 6ef0 d6be 3d4f 61bd 6740 29be 5bb5 c43e
00000030: cfcb 963e 747d 7a3e fc57 8ebe 8ea6 ec3e
00000040: e7c2 ee3d a2d9 0cbf 493d d93e 840b 963e
00000050: 08d7 8ebe 5adc 943d 9f6f ddbd e0f5 133e

fc1.weight f4 [120, 600]
0.054970074 0.08293337 0.06687597 0.012725519 -0.06353805 0.030165976 0.11248045 -0.008818454
-0.060868494 -0.01197546 0.059970967 0.037372243 0.041038483 -0.014408846 -0.004109425 0.04108148
0.06137921 -0.0013019276 -0.055581592 -0.025558794 0.048867993 -0.016854128 0.0038870515 -0.01330898
-0.04222463 0.055181302 0.07786155 0.06573876 0.06782491 -0.0160913 0.04798963 0.018734856
0.04050301 0.017962355 -0.006364433 0.012135924 0.07487569 0.032114256 -0.039827272 -0.067813225
0.01772395 0.018110491 -0.027486067 -0.05642663 -0.04110725 0.0693178 0.042218346 0.043605067
0.0012920621 -0.014692774 -0.0070614703 -0.001521134 -0.03998865 -0.08091644 0.00075480697 0.010846883
0.04705793 0.044009812 -0.016515069 -0.015772253 0.049594454 0.07374129 -0.019193407 -0.03579203
-0.04021618 -0.03280305 -0.017876294 -0.0829243 0.041090284 0.0031985953 -0.027285075 -0.05862452
-0.09410842 -0.015830934 0.030316625 -0.0033567161 0.021769729 0.0387445 -0.02863341 -0.029849797
-0.01878556 -0.03786693 -0.003520937 -0.10269444 0.010381573 0.019214103 -0.039376236 -0.05331828
-0.014624047 0.023994189 0.08671866 0.043430485 0.015156649 -0.049551174 0.0701742 0.08031787
0.061109222 0.07525871 0.06513479 0.12734048 0.023760885 -0.052347183 -0.065251306 -0.012125532
0.014157242 -0.00925453 -0.0018871451 -0.0450037 -0.051888574 -0.04226416 0.03482627 -0.024208993
-0.06420314 -0.13546956 0.011434894 0.07571488 0.00018503988 0.025977029 -2.1551146e-05 -0.00812053
-0.0064095366 0.055201508 0.0136857685 0.07853696 0.0058343974 -0.013649022 0.0032631601 -0.04503655
0.020991012 -0.005462862 0.1415408 0.05368295 -0.10495066 -0.02341154 0.0014750271 0.02723125
0.010780866 -0.054997638 0.02889435 0.03995451 0.0286155 -0.043005627 0.039052878 -0.007725438
0.04888979 0.03454728 0.0137678515 0.007989953 -0.0074810237 -0.0008313864 0.028617825 0.07234486
-0.029670244 0.021240765 0.078684 0.04418451 -0.075343415 0.04594401 0.02477205 -8.9003624e-05
-0.060946003 -0.075797446 -0.10715854 0.033564854 0.025796559 -0.029022098 -0.017842088 -0.027090926
0.03536408 0.00876669 0.11769111 0.02931472 -0.014791647 -0.079509735 0.001765175 -0.005815993
-0.027477082 -0.09168022 -0.032983366 -0.08675677 0.0033077998 0.1203959 0.042483643 -0.007175146
0.00021248065 0.01819401 0.022255875 0.083827876 0.02352663 -0.08178217 -0.054116648 -0.072541125
-0.050734237 -0.038462598 -0.061036482 -0.01503507 -0.054796863 -0.12668116 -0.09018787 -0.022824842
-0.0015296562 -0.008326823 -0.019221194 -0.023343703 -0.0058289003 0.023813294 0.026924508 0.016443485
0.0064202747 0.031043045 -0.01112598 0.04572962 0.012553332 -0.060044326 -0.049153052 0.029392736
0.01714703 0.03782536 -0.000576104 -0.06053453 -0.033076845 -0.15511079 -0.06524665 0.018438715
-0.056193005 -0.06623981 -0.08821935 -0.04213598 -0.0014507078 0.035534035 -0.070907936 -0.05739063
0.014654724 0.0072278487 0.029492365 0.010201378 -0.06374558 0.0051583983 0.046694536 0.0019717831
-0.035658628 -0.012807872 -0.02132039 -0.0026795338 0.045414947 0.0046907347 0.012305605 0.04030059
-0.024256002 0.017013088 0.046809394 0.07481043 -0.04655076 0.0074684247 0.0054193153 0.033863306
00000000: 4d28 613d f8d8 a93d 45f6 883d b27e 503c
00000010: 3d20 82bd a31e f73c 265c e63d 477b 10bc
00000020: 3e51 79bd b834 44bc 1ea4 753d a313 193d
00000030: f817 283d 1513 6cbc 5ba8 86bb 0e45 283d
00000040: c468 7b3d 71a5 aaba 86a9 63bd ad60 d1bc
00000050: ce29 483d ab11 8abc e7bd 7e3b e80d 5abc
00000060: bcf3 2cbd ca05 623d e075 9f3d 0ba2 863d
00000070: c9e7 8a3d e7d1 83bc c690 443d d779 993c
00000080: 7ce6 253d ca25 933c bc8c d0bb c1d5 463c
00000090: 6d58 993d 3d8a 033d ec21 23bd a9e1 8abd
000000a0: d131 913c 745c 943c 762a e1bc 9c1f 67bd
000000b0: 1360 28bd 7ef6 8d3d 25ed 2c3d 3a9b 323d
000000c0: 695a a93a f6b9 70bc e863 e7bb ca60 c7ba
000000d0: 23cb 23bd 85b7 a5bd 3dde 453a 20b7 313c
000000e0: d1bf 403d a243 343d 9c4a 87bc d034 81bc
000000f0: 8e23 4b3d ac05 973d 7e3b 9dbc aa9a 12bd
00000100: b9b9 24bd 7e5c 06bd 4e71 92bc 37d4 a9bd
00000110: 494e 283d 869f 513b f384 dfbc 4420 70bd
00000120: eabb c0bd e0af 81bc 925a f83c 5afc 5bbb
00000130: 6e56 b23c 8eb2 1e3d 9d90 eabc 9087 f4bc
00000140: 2de4 99bc 5b1a 1bbd 85bf 66bb 7651 d2bd
00000150: 7917 2a3c e566 9d3c fa48 21bd 4564 5abd
00000160: b399 6fbc 768f c43c 8e99 b13d 2ae4 313d
00000170: 9853 783c 2cf6 4abd 7eb7 8f3d b27d a43d
00000180: aa4d 7a3d 3d21 9a3d 6465 853d 8b65 023e
00000190: 30a6 c23c 006a 56bd 7aa2 85bd 2baa 46bc
000001a0: c7f3 673c 50a0 17bc 155a f7ba cd55 38bd
000001b0: 1d89 54bd 2f1d 2dbd fea5 0e3d f051 c6bc
000001c0: f07c 83bd 88b8 0abe 6c59 3b3c 6710 9b3d
000001d0: 4407 4239 c7cd d43c bcc8 b4b7 f90b 05bc
000001e0: 1707 d2bb fa1a 623d 463a 603c fcd7 a03d
000001f0: 792e bf3b 26a0 5fbc beda 553b 3f78 38bd
00000200: 58f5 ab3c cf01 b3bb 12f0 103e a7e2 5b3d
00000210: 5ff0 d6bd 8fc9 bfbc b255 c13a 1214 df3c
00000220: 3ba2 303c 3445 61bd d8b3 ec3c 57a7 233d
00000230: 0e6b ea3c ab26 30bd e9f5 1f3d ac25 fdbb
00000240: a940 483d 7381 0d3d 8e92 613c 4be8 023c
00000250: 6023 f5bb 66f1 59ba ee6f ea3c 8b29 943d
00000260: 030f f3bc 1d01 ae3c 1425 a13d d1fa 343d
00000270: a64d 9abd c92f 3c3d c1ee ca3c 75a7 bab8
00000280: 84a2 79bd b13b 9bbd f075 dbbd 4d7b 093d
00000290: 4e53 d33c c0bf edbc 9229 92bc caed ddbc
000002a0: edd9 103d 2aa2 0f3c 0908 f13d 6c25 f03c
000002b0: aa58 72bc 00d6 a2bd 725d e73a 1694 bebb
000002c0: 9e17 e1bc d7c2 bbbd 9119 07bd 89ad b1bd
000002d0: acc7 583b 2092 f63d 5403 2e3d 7d1d ebbb
000002e0: 57cd 5e39 9b0b 953c f451 b63c f3ad ab3d
000002f0: ebba c03c 697d a7bd 6ba9 5dbd 7190 94bd
00000300: b4ce 4fbd f58a 1dbd 6401 7abd a755 76bc
00000310: ad72 60bd b5b8 01be 6bb4 b8bd 2afb babc
00000320: bf7e c8ba 3a6d 08bc c475 9dbc 4b3b bfbc
00000330: 5c00 bfbb 1914 c33c c990 dc3c 7db4 863c
00000340: 2b61 d23b fc4d fe3c be49 36bc fb4e 3b3d
00000350: 7eac 4d3c 0af1 75bd b654 49bd 09c9 f03c
00000360: ee77 8c3c c4ee 1a3d af05 17ba 0ef3 77bd
00000370: 967b 07bd 5dd5 1ebe 09a0 85bd ca0c 973c
00000380: a32a 66bd bda8 87bd 59ac b4bd c796 2cbd
00000390: ad25 beba 238c 113d 2e38 91bd 7012 6bbd
000003a0: 5e1a 703c 97d7 ec3b f999 f13c ae23 273c
000003b0: 0b8d 82bd c807 a93b c542 3f3d 0839 013b
000003c0: c80e 12bd 1cd8 51bc 19a8 aebc 1e9b 2fbb
000003d0: 0605 3a3d bcb4 993b 739d 493c 3b12 253d
000003e0: 86b4 c6bc 085f 8b3c 35bb 3f3d 3636 993d
000003f0: 02ac 3ebd b0b9 f43b 8394 b13b 40b4 0a3d

fc1.bias f4 [120]
0.05380343 0.036458075 -0.091085084 0.032929584 -0.098383985 0.1827215 0.0051633525 0.12047063
0.08118116 0.05306303 0.0462128 -0.025016174 -0.02904768 0.19884488 0.025355814 -0.05497423
0.06521211 0.00050028675 -0.0773129 -0.0061145504 0.038482435 -0.022168325 0.08241417 0.050040424
0.056534853 0.118943326 0.017266944 -0.016684676 -0.04006489 -0.025497444 0.07119762 0.07894012
0.057377845 0.03236719 0.08048147 0.04682238 -0.08478132 0.017947 -0.050213438 0.062309667
-0.08287763 -0.030337052 0.16940263 0.055558503 0.022267431 0.07699627 0.038481005 0.018684834
0.028084354 -0.02706819 0.07394328 -0.010000048 0.1294583 -0.04177838 -0.04375457 0.14283729
0.07489015 -0.032690458 -0.024438724 0.00523023 -0.12667091 0.011824686 0.15724015 -0.066594616
-0.0068324776 0.10778807 0.032985043 -0.051033396 0.1607206 0.16007191 -0.0060055745 -0.014361432
0.00836738 0.14287445 0.0035959836 -0.015264492 0.1621727 -0.033765897 -0.0883865 -0.15758413
-0.03612174 0.036020383 -0.002766087 0.06722906 0.14423716 0.016597988 0.20666268 0.13265508
-0.082334906 -0.022802828 0.020079244 0.051791985 0.0029971343 -0.012029568 -0.0050539463 -0.034701794
0.026348053 0.044846937 0.048312318 -0.029686887 0.03772291 0.044687387 0.014980707 0.024541847
-0.086750336 0.01842137 0.018187648 -0.013035527 0.01824403 -0.021945274 -0.052396424 -0.08982689
0.023516538 0.09713938 0.024515668 -0.00213488 -0.034321945 0.12119146 -0.054138586 -0.1285301
00000000: fc60 5c3d 1055 153d d18a babd 2ce1 063d
00000010: 8b7d c9bd 581b 3b3e 5731 a93b 4eb9 f63d
00000020: 4f42 a63d 9f58 593d a249 3d3d b8ee ccbc
00000030: 66f5 edbc fe9d 4b3e ffb6 cf3c a82c 61bd
00000040: ed8d 853d ad25 033a 3a56 9ebd 915c c8bb
00000050: c29f 1d3d 599a b5bc c3c8 a83d 30f7 4c3d
00000060: 1791 673d 8f98 f33d 6873 8d3c 4dae 88bc
00000070: 151b 24bd 04e0 d0bc 0fd0 913d 5cab a13d
00000080: 0805 6b3d 7593 043d 78d3 a43d d3c8 3f3d
00000090: d4a1 adbd 9605 933c 9bac 4dbd 6c38 7f3d
000000a0: bfbb a9bd 6985 f8bc e277 2d3e 5091 633d
000000b0: 306a b63c 38b0 9d3d 429e 1d3d f010 993c
000000c0: 2911 e63c 1cbe ddbc 936f 973d 3ed7 23bc
000000d0: b790 043e ce1f 2bbd fe37 33bd f043 123e
000000e0: 0260 993d 6ee6 05bd b833 c8bc 5962 ab3b
000000f0: 05b6 01be 54bc 413c 9003 213e c262 88bd
00000100: fae2 dfbb febf dc3d 531b 073d 6508 51bd
00000110: f193 243e e4e9 233e 69ca c4bb 364c 6bbc
00000120: 5617 093c ae4d 123e 98aa 6b3b eb17 7abc
00000130: 9a10 263e 1c4e 0abd fb03 b5bd bc5d 21be
00000140: 64f4 13bd 1c8a 133d 3d47 35bb 64af 893d
00000150: e8b2 133e 81f8 873c 629f 533e bcd6 073e
00000160: 349f a8bd ffcc babc 3a7d a43c d523 543d
00000170: 926b 443b aa17 45bc 939b a5bb 7823 0ebd
00000180: dfd7 d73c 6cb1 373d 23e3 453d ea31 f3bc
00000190: 5783 1a3d 1f0a 373d a471 753c fc0b c93c
000001a0: 29aa b1bd 6ae8 963c 43fe 943c f792 55bc
000001b0: 8174 953c 93c6 b3bc a29d 56bd 29f7 b7bd
000001c0: c1a5 c03c 03f1 c63d 15d5 c83c 58e9 0bbb
000001d0: 2b95 0cbd 3a33 f83d 6cc0 5dbd 659d 03be

fc2.weight f4 [84, 120]
0.034110494 0.038326617 0.012073074 0.065634236 0.029656729 0.0017388458 -0.057858657 0.03081183
0.01939177 -0.035123195 -0.10844769 -0.08529513 -0.00962744 0.00645141 0.010463031 -0.0922269
-0.012655904 -0.0029140257 -0.03224169 0.078594424 -0.03818719 -0.06904634 -0.11262618 0.08329443
-0.08894643 0.03926026 0.077831134 -0.011101413 0.091136545 -0.03663002 0.02512713 0.013302581
0.05216755 -0.0836404 -0.046095304 -0.10099919 0.05351794 -0.0052001467 -0.034474913 0.0838651
0.009989984 -0.05615264 -0.107244425 -0.0043693255 0.0030669472 0.02844938 -0.031028671 -0.035039615
-0.022128707 0.035338227 -0.04489269 0.0039056276 0.096871935 0.007347591 0.08175285 -0.017495511
0.051671628 0.030534703 0.051657178 -0.039372858 -0.08015924 0.07698796 -0.018251142 -0.020991895
0.062956035 0.07548207 -0.027430696 -0.053482354 -0.040098485 -0.059089262 -0.00410243 0.004781172
0.05179521 -0.03922353 -0.019183805 0.054321572 0.06619938 -0.012771421 -0.085664906 0.03940237
0.023827774 -0.056068204 0.055937346 0.07306251 0.08223822 -0.016836507 0.030291678 0.015356843
-0.08946166 -0.060925134 0.07812965 -0.015057913 0.072231606 0.015965693 0.06351811 -0.06204452
0.011340449 -0.025548872 0.027877104 -0.024089335 -0.049997598 0.03968129 -0.025414284 -0.026246361
0.058582544 -0.09222736 -0.028726516 -0.0622676 0.00484485 -0.06271322 -0.02086741 0.0708289
0.06262447 -0.08413098 -0.051850516 0.046087775 -0.07989002 -0.021579454 0.019659314 0.03859336
-0.0034907807 0.051153094 0.15557958 0.10706006 0.13885143 0.16797905 -0.0701588 0.0052314643
0.055627365 -0.1607882 0.17038196 0.08798059 0.07349429 0.008562216 -0.06919855 -0.05924398
-0.12837054 0.09678291 -0.08178862 -0.050640114 -0.10228834 -0.06187078 0.037329376 0.12435396
-0.16699272 -0.0014016286 -0.07943113 0.0016901813 0.08937487 0.015173723 0.14744022 -0.119720116
-0.18011618 -0.025186097 0.057904683 -0.14792138 0.15239607 -0.045240823 0.0045423177 0.0070131877
0.12323144 -0.08253876 0.09769137 0.029506154 -0.05503033 -0.05578097 -0.025979573 -0.16837013
0.057870314 -0.09977025 -0.099519625 -0.02406827 0.15497144 -0.11770668 -0.02982386 0.12853679
0.08166386 0.027965836 0.085951075 0.21114741 0.100126885 0.04653329 0.14244261 0.038359687
-0.06263208 -0.109205864 0.08652811 0.10372686 0.1809874 -0.12557794 -0.11301542 0.023593951
0.045123097 0.04738092 -0.08585305 -0.08687649 -0.03471434 -0.14599642 -0.10670888 0.03446621
-0.027167732 0.08586782 -0.052836638 -0.17203125 0.097659975 -0.054835364 -0.16872159 -0.017196927
0.01857953 0.088836886 -0.0062528476 -0.064783335 -0.13152005 -0.025777739 0.046088275 0.093314126
0.006917196 0.08789218 -0.14730285 -0.07503222 0.1399307 0.11659671 -0.0030726485 -0.10726898
-0.038851753 0.030751197 0.21728541 0.17448191 0.049622636 -0.030926378 -0.06311918 -0.15338434
0.085301474 -0.09884089 0.11867323 0.045094587 -0.032533847 0.13769074 -0.03577635 -0.011113498
0.055880956 0.01301785 -0.08095196 -0.012411164 -0.012496926 0.06228841 0.067929015 -0.12393923
-0.006802688 0.1316431 -0.083076335 0.10202963 -0.09277671 0.0416055 -0.02347054 0.100546725
00000000: 72b7 0b3d 5ffc 1c3d 24ce 453c 3e6b 863d
00000010: abf2 f23c fce9 e33a 33fd 6cbd 1769 fc3c
00000020: 7ddb 9e3c 57dd 0fbd d319 debd 37af aebd
00000030: 69bc 1dbc 5966 d33b 226d 2b3c 75e1 bcbd
00000040: b55a 4fbc 3df9 3ebb dd0f 04bd 1df6 a03d
00000050: 2c6a 1cbd 2b68 8dbd 8ea8 e6bd 4596 aa3d
00000060: 8c29 b6bd 5ecf 203d ee65 9f3d b3e2 35bc
00000070: cca5 ba3d 5c09 16bd 69d7 cd3c 12f3 593c
00000080: a4ad 553d a84b abbd 6ece 3cbd aad8 cebd
00000090: a135 5b3d fe65 aabb 9135 0dbd 77c1 ab3d
000000a0: 08ad 233c 5000 66bd f7a2 dbbd 8f2c 8fbb
000000b0: d6fe 483b ad0e e93c d72f febc b385 0fbd
000000c0: 4347 b5bc d1be 103d 66e1 37bd 8ff5 7f3b
000000d0: cb64 c63d 10c4 f03b 0a6e a73d bf52 8fbc
000000e0: a1a5 533d ea23 fa3c 7a96 533d 6f45 21bd
000000f0: 872a a4bd ddab 9d3d 6b83 95bc 32f7 abbc
00000100: 18ef 803d 5896 9a3d 57b6 e0bc 5010 5bbd
00000110: 4f3e 24bd 9507 72bd ad6d 86bb 61ab 9c3b
00000120: 3727 543d daa8 20bd 5b27 9dbc 4c80 5e3d
00000130: 8a93 873d 393f 51bc 1571 afbd 6164 213d
00000140: 7732 c33c c6a7 65bd 8f1e 653d cca1 953d
00000150: 836c a83d b7ec 89bc 4126 f83c 459b 7b3c
00000160: ad37 b7bd a28c 79bd 7002 a03d 77b5 76bc
00000170: 2aee 933d 7cca 823c c815 823d 6522 7ebd
00000180: 4acd 393c de4b d1bc 865e e43c ff56 c5bc
00000190: 48ca 4cbd d988 223d 9e31 d0bc 9c02 d7bc
000001a0: 40f4 6f3d b3e1 bcbd df53 ebbc 500c 7fbd
000001b0: 8cc1 9e3b ca6f 80bd 21f2 aabc be0e 913d
000001c0: 4241 803d dd4c acbd 3561 54bd 89c6 3c3d
000001d0: 619d a3bd 65c7 b0bc 920c a13c 1214 1e3d
000001e0: 95c5 64bb e885 513d 4150 1f3e 4e42 db3d
000001f0: 122f 0e3e b302 2c3e 6baf 8fbd b46c ab3b
00000200: 85d9 633d a9a5 24be 9c78 2e3e 2b2f b43d
00000210: 2d84 963d 8948 0c3c f8b7 8dbd d1a9 72bd
00000220: 9173 03be 1e36 c63d cb80 a7bd 026c 4fbd
00000230: 8d7c d1bd 376c 7dbd b0e6 183d 4aad fe3d
00000240: 2400 2bbe dab6 b7ba caac a2bd 1389 dd3a
00000250: 2c0a b73d 359b 783c 92fa 163e d22f f5bd
00000260: 6070 38be 1353 cebc 762d 6d3d b478 17be
00000270: b70d 1c3e 714e 39bd b9d7 943b e2ce e53b
00000280: c460 fc3d 150a a9bd 6a12 c83d e4b6 f13c
00000290: 7c67 61bd 967a 64bd 1dd3 d4bc 3869 2cbe
000002a0: 6c09 6d3d 5854 ccbd f2d0 cbbd d22a c5bc
000002b0: d5b0 1e3e 3310 f1bd 2b51 f4bc 269f 033e
000002c0: 623f a73d 9c18 e53c 1e07 b03d 0737 583e
000002d0: 530f cd3d b199 3e3d 7adc 113e 0c1f 1d3d
000002e0: 3f45 80bd 53a7 dfbd a635 b13d bf6e d43d
000002f0: c354 393e 8197 00be a174 e7bd 1a48 c13c
00000300: ffd2 383d 7f12 423d b9d3 afbd 4dec b1bd
00000310: a030 0ebd 1680 15be 2f8a dabd 712c 0d3d
00000320: dd8e debc 78db af3d 3b6b 58bd f628 30be
00000330: f401 c83d 0c9b 60bd 5ac5 2cbe 92e0 8cbc
00000340: 1934 983c 1df0 b53d b0e4 ccbb 20ad 84bd
00000350: 31ad 06be d62b d3bc 0fc7 3c3d 7a1b bf3d
00000360: a5a9 e23b d100 b43d 8fd6 16be 7eaa 99bd
00000370: fe49 0f3e 42ca ee3d 7d5e 49bb d7af dbbd
00000380: 0423 1fbd efe9 fb3c 1180 5e3e 63ab 323e
00000390: 1b41 4b3d 5159 fdbc a144 81bd c910 1dbe
000003a0: 8ab2 ae3d 186d cabd f30a f33d 1ab5 383d
000003b0: 3642 05bd cdfe 0c3e 398a 12bd 6415 36bc
000003c0: 6ee3 643d d248 553c 24ca a5bd 3258 4bbc
000003d0: e8bf 4cbc 2222 7f3d 5e1e 8b3d dad3 fdbd
000003e0: 15e9 debb 73cd 063e ed23 aabd e9f4 d03d
000003f0: b701 bebd 876a 2a3d 4a45 c0bc 71eb cd3d

fc2.bias f4 [84]
0.004868083 0.1506851 0.08617579 0.15034123 -0.11443971 0.08222382 -0.024419492 0.13114128
0.029079638 -0.04064659 0.017662676 -0.096476875 0.18849792 0.05418224 0.07022821 0.0040946915
0.07821136 -0.25449967 -0.09019131 0.09163394 -0.08323077 -0.026884584 -0.022957198 0.12831782
-0.09442211 -0.07497242 0.12532638 0.10809394 0.19963793 -0.081165195 -0.075705186 0.2071421
0.0042123445 -0.0762975 -0.0799438 0.017736247 0.23834948 0.10175716 0.053278547 0.14817421
-0.03879757 0.06472543 -0.08824228 -0.05604539 -0.116298646 0.14738329 0.09288071 -0.053977877
0.027889006 0.16948864 0.17112035 -0.1315927 0.011567647 -0.094079316 0.015954621 0.23437807
-0.06802869 -0.0040262733 -0.046996653 -0.034648888 0.34662974 0.019815113 0.12962767 0.14137562
-0.039757863 0.28969467 0.053073734 0.11690063 -0.11774629 -0.04895414 -0.0047422284 -0.06617211
0.039672058 -0.0027221222 -0.061322 -0.047753945 0.015113988 0.03224261 0.026710702 0.21893306
-0.18141876 0.09797168 0.22031054 -0.019384021
00000000: 7184 9f3b 324d 1a3e ef7c b03d 0df3 193e
00000010: 5e5f eabd f664 a83d 630b c8bc e649 063e
00000020: 6c38 ee3c 0a7d 26bd 51b1 903c ab95 c5bd
00000030: 9905 413e 32ee 5d3d cfd3 8f3d c32c 863b
00000040: 472d a03d c84d 82be 39b6 b8bd 93aa bb3d
00000050: e574 aabd 0f3d dcbc bc10 bcbc bf65 033e
00000060: 6160 c1bd 248b 99bd 8f55 003e 5b60 dd3d
00000070: e36d 4c3e f039 a6bd 520b 9bbd 0f1d 543e
00000080: b507 8a3b dd41 9cbd 93b9 a3bd 9b4b 913c
00000090: e311 743e 0f66 d03d 9b3a 5a3d fbba 173e
000000a0: 33ea 1ebd c48e 843d 5eb8 b4bd da8f 65bd
000000b0: fc2d eebd a5eb 163e 3e38 be3d e817 5dbd
000000c0: 7c77 e43c 6e8e 2d3e 2c3a 2f3e 3dc0 06be
000000d0: 3a86 3d3c a8ac c0bd 44b3 823c ce00 703e
000000e0: a052 8bbd d4ee 83bb 907f 40bd feeb 0dbd
000000f0: 7479 b13e 4e53 a23c 1ebd 043e c5c4 103e
00000100: 24d9 22bd dc52 943e d863 593d 9969 ef3d
00000110: f824 f1bd 2384 48bd b264 9bbb 3e85 87bd
00000120: 2b7f 223d a265 32bb c72c 7bbd a499 43bd
00000130: a9a0 773c d410 043d 67d0 da3c fd2f 603e
00000140: d7c5 39be 60a5 c83d 1699 613e 3dcb 9ebc

fc3.weight f4 [10, 84]
-0.07991555 0.2585917 0.035315935 -0.10193348 0.11720391 0.23656867 -0.19756068 -0.28919291
-0.24746445 0.111501314 -0.4230472 -0.13644572 0.14832294 -0.0019033594 0.3934785 -0.19882293
-0.023973338 0.15190093 -0.08252376 -0.0059174816 0.07509965 -0.091848925 0.17446275 0.25282422
-0.07561133 0.25355512 0.108247824 0.058017824 -0.22522615 0.006465521 -0.17296636 0.013153
-0.08756378 -0.3482357 0.033059735 0.24899314 0.16940165 0.30009177 0.06699601 -0.17724761
0.02083227 0.049506724 -0.010544607 -0.20383248 0.020836128 0.05220079 -0.016202739 0.115557395
-0.1472075 -0.57852274 -0.10197317 -0.097571686 0.1407304 -0.09921268 0.38551426 0.03750983
0.29695553 0.09635281 -0.16381656 -0.024739869 0.361103 0.01497101 0.29279625 0.26622215
0.14398998 -0.5232674 0.086656936 0.37022808 0.21482323 -0.051293015 0.03311655 -0.03180326
0.10930643 -0.17073993 0.031781476 -0.3039936 0.017441072 -0.009627912 -0.017085815 -0.26121777
0.31072444 0.012947438 -0.11426512 0.09284182 0.012921766 -0.11761102 -0.05458402 -0.1307465
0.26036102 0.29547685 0.15501307 -0.13392441 0.15965545 -0.073581725 0.3195606 0.03806944
-0.22873674 0.27037814 0.2211593 -0.106862366 -0.45722297 0.28100598 -0.01205999 -0.19006057
0.12068775 -0.09387758 -0.062906496 -0.0036769568 0.05797669 -0.200693 -0.21834928 -0.05162897
-0.37186006 0.033977587 -0.11819809 -0.07232195 0.11324607 0.4427211 0.06528237 -0.42994368
0.23211843 -0.43147284 -0.2653456 -0.24796028 0.10358447 -0.18916118 -0.10212999 -0.35048118
-0.018110596 -0.069174096 -0.045562644 -0.17215137 0.10195614 -0.08372818 0.09283695 0.21770541
-0.11194503 0.03810063 0.21212915 -0.14461309 -0.111660995 -0.1626763 0.39666125 0.14868465
-0.39797348 0.12118078 -0.22624008 -0.13504034 0.13279763 -0.079277374 -0.0013312681 0.003327654
0.011910281 -0.092455365 -0.032199334 0.27517524 0.14478152 0.302415 0.040825423 0.30461538
-0.11060021 0.1804721 0.028138146 -0.172576 0.49048927 -0.0033450506 -0.45552993 -0.09991541
0.13098848 0.28567153 0.2064086 0.04368033 0.099962175 0.2011315 -0.28763533 0.10929864
0.24489123 -0.06865556 0.13089012 0.037483934 -0.00950648 0.007109732 0.21670873 0.06371988
0.15646069 -0.29732326 0.12422026 0.28704566 -0.016342824 0.034495298 -0.014654485 -0.19304939
0.31340745 0.14165282 0.5806495 -0.05590041 0.056124408 -0.093159825 0.13720435 0.048702277
-0.065917365 -0.22773343 -0.11215864 -0.31804544 -0.06500059 0.18786208 -0.24212024 0.33324566
0.1606947 -0.08882564 0.05438244 -0.14210556 -0.016339175 0.12142386 0.41454008 0.2070064
0.32464638 0.18207988 0.28158388 0.14136991 -0.19254275 0.27066123 -0.19191505 0.12235303
0.15122086 0.07681475 -0.08905863 -0.26781154 -0.045946937 -0.11041943 0.028607095 -0.1917833
-0.1102925 -0.31677118 -0.36102256 0.42187023 0.17391731 0.22452581 0.39609575 -0.06393539
0.004865024 0.07153381 0.051562957 -0.19625425 0.6122854 -0.39956906 -0.057354834 0.021477561
-0.19071357 -0.05760668 -0.22863868 0.050042763 0.026654907 -0.02938731 -0.2440301 0.31535253
00000000: c4aa a3bd 2266 843e 71a7 103d 80c2 d0bd
00000010: 9b08 f03d 0f3f 723e 594d 4abe 1811 94be
00000020: 5267 7dbe cd5a e43d a599 d8be 6db8 0bbe
00000030: f8e1 173e 257a f9ba 0476 c93e 3d98 4bbe
00000040: bc63 c4bc eb8b 1b3e 3802 a9bd 6fe7 c1bb
00000050: d8cd 993d 4a1b bcbd 5da6 323e 2d72 813e
00000060: 1dda 9abd fad1 813e 09b1 dd3d 19a4 6d3d
00000070: afa1 66be b9dc d33b 181e 31be ae7f 573c
00000080: a454 b3bd f34b b2be a569 073d 0ff8 7e3e
00000090: a077 2d3e a1a5 993e 3435 893d 6680 35be
000000a0: 70a8 aa3c 90c7 4a3d 4ac3 2cbc 76b9 50be
000000b0: 87b0 aa3c 7fd0 553d 9bbb 84bc 5ba9 ec3d
000000c0: 90bd 16be 111a 14bf 4fd7 d0bd aad3 c7bd
000000d0: a11b 103e 0430 cbbd 2062 c53e e8a3 193d
000000e0: 8e0a 983e 9f54 c53d 87bf 27be 44ab cabc
000000f0: 7ee2 b83e f848 753c 64e9 953e 454e 883e
00000100: 1c72 133e daf4 05bf 3179 b13d 898e bd3e
00000110: 9ffa 5b3e a018 52bd 38a5 073d 2344 02bd
00000120: 0ddc df3d 73d6 2ebe 4b2d 023d 0da5 9bbe
00000130: 94e0 8e3c 64be 1dbc 8df7 8bbc 56be 85be
00000140: 4617 9f3e 7e21 543c d503 eabd da23 be3d
00000150: d1b5 533c 0cde f0bd 7e93 5fbd 69e2 05be
00000160: 0a4e 853e be48 973e bfbb 1e3e 7b23 09be
00000170: b87c 233e 04b2 96bd 729d a33e b3ee 1b3d
00000180: f739 6abe 016f 8a3e 9577 623e a8da dabd
00000190: 2119 eabe 04e0 8f3e 4497 45bc 3d9f 42be
000001a0: 242b f73d e342 c0bd 1fd5 80bd 19f9 70bb
000001b0: f778 6d3d 7782 4dbe f496 5fbe e678 53bd
000001c0: 7164 bebe 152c 0b3d d711 f2bd 881d 94bd
000001d0: 8eed e73d 57ac e23e c3b2 853d 9421 dcbe
000001e0: 74b0 6d3e 02ea dcbe 61db 87be 4de9 7dbe
000001f0: 1824 d43d 78b3 41be 8729 d1bd 4572 b3be
00000200: ac5c 94bc 26ab 8dbd e59f 3abd 7348 30be
00000210: 61ce d03d ae79 abbd 4d21 be3d 2bee 5e3e
00000220: 7043 e5bd 680f 1c3d 6238 593e 7415 14be
00000230: 85ae e4bd 9e94 26be 2f17 cb3e ca40 183e
00000240: 2ec3 cbbe a12d f83d 7bab 67be 0448 0abe
00000250: 1afc 073e 2d5c a2bd f27d aeba c514 5a3b
00000260: 5723 433c 3d59 bdbd 73e3 03bd c5e3 8c3e
00000270: 9b41 143e 24d6 9a3e 8f38 273d 8cf6 9b3e
00000280: 5d82 e2bd aecd 383e f881 e63c c3b7 30be
00000290: 6921 fb3e a338 5bbb 383b e9be 73a0 ccbd
000002a0: d821 063e 8a43 923e c75c 533e 25ea 323d
000002b0: f8b8 cc3d 6af5 4d3e f044 93be f7d7 df3d
000002c0: c4c4 7a3e 499b 8cbd 0f08 063e c188 193d
000002d0: 11c1 1bbc c1f8 e83b e5e8 5d3e 927f 823d
000002e0: 3b37 203e c13a 98be 3167 fe3d a6f7 923e
000002f0: 63e1 85bc f14a 0d3d 5d19 70bc bdae 45be
00000300: f176 a03e 700d 113e 72a5 143f d4f7 64bd
00000310: b5e2 653d 94ca bebd 4c7f 0c3e 0a7c 473d
00000320: afff 86bd f432 69be 6eb3 e5bd dad6 a2be
00000330: 081f 85bd eb5e 403e 5eee 77be 2d9f aa3e
00000340: 278d 243e 38ea b5bd 1fc0 5e3d 1f84 11be
00000350: bcd9 85bc 13ad f83d 993e d43e 7cf9 533e
00000360: 0d38 a63e 2673 3a3e c32b 903e 46c3 103e
00000370: ed29 45be 1c94 8a3e 6185 44be 3a94 fa3d
00000380: a4d9 1a3e 0d51 9d3d 5f64 b6bd 981e 89be
00000390: db32 3cbd 9523 e2bd 6d59 ea3c d762 44be
000003a0: 09e1 e1bd d52f a2be f3d7 b8be 60ff d73e
000003b0: 6117 323e 18ea 653e 10cd ca3e 8ff0 82bd
000003c0: c76a 9f3b 5180 923d ae33 533d e0f6 48be
000003d0: bcbe 1c3f 5194 ccbe e7ec 6abd b6f1 af3c
000003e0: 6b4a 43be fbf4 6bbd 4220 6abe a4f9 4c3d
000003f0: 645b da3c a8bd f0bc 07e3 79be e375 a13e

fc3.bias f4 [10]
-0.12463677 -0.33671916 0.01827103 0.06546097 0.43388358 -0.12021715 0.0437738 -0.2540969
0.3600755 -0.21256767
00000000: 9041 ffbd 7466 acbe 21ad 953c 6710 863d
00000010: fd25 de3e 6934 f6bd 284c 333d fd18 82be
00000020: d15b b83e 57ab 59be
